actor_critic.pth (torch_old, 476894 bytes, 30 tensors)

weight f4 [256, 23]
-0.13713278 0.192324 0.124318466 -0.13558829 -0.007034734 -0.13394544 -0.013641596 -0.1513714
-0.0135549605 -0.14146033 -0.105234824 0.05130349 -0.14159596 0.07772727 0.09297271 0.04833387
-0.1949829 0.07318707 0.00400804 0.15605842 0.17612548 0.07271178 0.20240946 -0.036741063
-0.18078355 0.15181087 0.20214479 -0.19110775 -0.07761833 0.06381674 -0.0047171414 0.13215478
-0.15687089 0.14391695 0.0716023 -0.09103975 0.079792276 -0.12609418 0.16366835 -0.08865284
0.12676941 0.15169777 -0.041717827 0.08917077 0.030289575 -0.18346165 0.20051558 0.08271234
-0.098660484 -0.20086224 0.1593471 -0.15411854 -0.1303042 0.2071143 -0.053174824 -0.1947571
0.18279757 -0.04981579 0.19219424 0.0717787 -0.18685815 0.101444826 -0.04086648 -0.15600815
0.13733582 0.14074375 0.1487057 0.20048599 -0.06335318 0.091096774 0.095433965 0.12512426
0.1344976 0.15975513 -0.19763441 -0.112800255 -0.16877124 -0.0499063 -0.102085635 0.0804881
0.17900343 -0.08052234 -0.10401843 -0.18464519 -0.19067588 -0.13334551 -0.20246592 -0.15795451
-0.06199926 0.11133708 -0.08995867 0.06075622 0.07411577 -0.045645088 0.05577381 0.008310571
-0.16441609 0.046117082 0.105447635 -0.13828355 0.12586205 0.1303847 -0.14986101 -0.0107732415
0.068988696 0.13739006 -0.09524597 0.17666186 -0.054394305 0.06932239 -0.028113872 -0.10553718
0.009897277 -0.11632327 -0.008464351 0.09144299 0.16193093 0.15350659 -0.045334086 0.18097772
0.0858963 -0.13807866 -0.20648822 0.1444182 -0.089194275 -0.19696139 0.06953101 0.20552628
-0.0060074776 0.14951412 -0.15116972 0.109357044 -0.1487406 -0.13150044 -0.011280388 -0.086687386
-0.13955802 0.16888265 0.115532085 -0.18468004 -0.20799415 -0.06992318 0.07393743 0.18825532
0.20040391 -0.083109215 0.042732432 0.10024281 0.18575867 0.19316243 0.14461352 0.035998464
0.04527919 0.14973427 0.011638522 -0.1688272 0.16168968 -0.07888369 -0.032439783 0.016450688
0.04915683 -0.16691592 -0.045135975 0.0073048025 -0.050935745 -0.08498618 0.14343287 -0.1393686
-0.20801829 -0.10654833 -0.20231856 0.108978674 0.16474123 0.02788885 0.07301773 0.06756748
0.03542526 -0.029713735 0.1791525 -0.047972783 -0.20328768 0.098049745 -0.13250124 0.15560849
-0.14825378 -0.12444271 -0.20267434 -0.013267994 -0.10163769 0.028282031 -0.042353675 -0.062056854
0.1334386 0.07674919 0.17526634 0.08503987 0.108719066 -0.0007240623 -0.18164144 -0.0703488
-0.08207442 0.13082571 0.08214946 0.14534695 0.14589654 0.15105264 -0.019662142 -0.15551388
-0.19120601 -0.18958814 -0.032239765 0.20543058 -0.1696991 0.02239868 -0.016387075 -0.18797927
-0.04113762 0.07064937 -0.14668933 0.11535545 -0.055712283 -0.1043235 -0.19092943 -0.05700791
-0.16204235 0.065978035 -0.04854171 0.1072727 0.012073219 0.03271289 -0.12169931 0.048297122
-0.1440861 0.1615216 -0.19007607 -0.09946373 -0.11407924 -0.052815095 -0.15533735 0.084271595
-0.1596942 0.031931162 -0.19964181 0.060736015 0.1971216 -0.1137773 -0.018430114 0.12462653
-0.029379785 -0.1822874 -0.15985727 -0.076752275 -0.14770535 -0.024675444 0.18135454 0.025454879
00000000: 896c 0cbe 95f0 443e ae9a fe3d a8d7 0abe
00000010: a083 e6bb fe28 09be 0081 5fbc 1b01 1bbe
00000020: a015 5ebc fada 10be 5b85 d7bd 9c23 523d
00000030: 88fe 10be 7a2f 9f3d 7a68 be3d bcf9 453d
00000040: 99a9 47be 1ae3 953d e055 833b c7cd 1f3e
00000050: 3d5a 343e eae9 943d 6d44 4f3e cc7d 16bd
00000060: 531f 39be 4f74 1b3e 0bff 4e3e c0b1 43be
00000070: 5cf6 9ebd 5ab2 823d 4092 9abb 9553 073e
00000080: c3a2 20be f75e 133e 3aa4 923d 0c73 babd
00000090: 226a a33d d51e 01be ad98 273e 9f8f b5bd
000000a0: d7cf 013e a956 1b3e 50e0 2abd 2a9f b63d
000000b0: d821 f83c 5fdd 3bbe f553 4d3e 1665 a93d
000000c0: 820e cabd d5ae 4dbe e32b 233e 40d1 1dbe
000000d0: 776e 05be c515 543e d8cd 59bd 686e 47be
000000e0: 492f 3b3e a40b 4cbd 91ce 443e b600 933d
000000f0: be57 3fbe 4ec2 cf3d 9c63 27bd 9ac0 1fbe
00000100: c3a1 0c3e 211f 103e 4f46 183e 334c 4d3e
00000110: 50bf 81bd f290 ba3d e272 c33d 9320 003e
00000120: bdb9 093e d996 233e ad60 4abe d203 e7bd
00000130: 5ed2 2cbe 8c6a 4cbd 4612 d1bd f2d6 a43d
00000140: ad4c 373e e6e8 a4bd 9d07 d5bd a113 3dbe
00000150: 8a40 43be ba8b 08be 3a53 4fbe d4be 21be
00000160: f0f2 7dbd b204 e43d 403c b8bd 84db 783d
00000170: 02ca 973d 58f6 3abd 1473 643d 1029 083c
00000180: b15c 28be 44e5 3c3d eef4 d73d 349a 0dbe
00000190: fbe1 003e 9183 053e 2a75 19be 4082 30bc
000001a0: f249 8d3d fbaf 0c3e 5210 c3bd d9e6 343e
000001b0: 90cc 5ebd e6f8 8d3d 104f e6bc e123 d8bd
000001c0: 3028 223c e53a eebd 10ae 0abc 7646 bb3d
000001d0: 39d1 253e d530 1d3e 3cb0 39bd 3952 393e
000001e0: 66ea af3d 7e64 0dbe a671 53be 5de2 133e
000001f0: 7dab b6bd 3fb0 49be 4666 8e3d 7b75 523e
00000200: 60da c4bb 3b1a 193e 3ccc 1abe 96f6 df3d
00000210: 754f 18be 0da8 06be 60d1 38bc 2889 b1bd
00000220: 4ce8 0ebe 93ef 2c3e 169c ec3d c41c 3dbe
00000230: 6bfc 54be e233 8fbd 826c 973d 01c6 403e
00000240: af36 4d3e 2a35 aabd 3408 2f3d 1a4c cd3d
00000250: 8537 3e3e 5fcc 453e 9115 143e 2073 133d
00000260: ac76 393d f153 193e 80af 3e3c 0ae1 2cbe
00000270: fb91 253e c68d a1bd 94df 04bd 98c3 863c
00000280: ac58 493d 02ec 2abe 80e0 38bd 205d ef3b
00000290: 00a2 50bd 3c0d aebd 11e0 123e a4b6 0ebe
000002a0: bf02 55be 0336 dabd 992c 4fbe 3630 df3d
000002b0: edb1 283e 2877 e43c 528a 953d d260 8a3d
000002c0: 141a 113d 386a f3bc c173 373e 1c7f 44bd
000002d0: a52a 50be 4ece c83d 68ae 07be d557 1f3e
000002e0: d7cf 17be d2db febd dd89 4fbe 0062 59bc
000002f0: 6c27 d0bd b8af e73c 0c7b 2dbd 542f 7ebd
00000300: 21a4 083e ae2e 9d3d 0579 333e 6229 ae3d
00000310: 1aa8 de3d 00cf 3dba 3700 3abe 0813 90bd
00000320: a216 a8bd 2df7 053e fa3d a83d d5d5 143e
00000330: e765 153e 8bad 1a3e 8012 a1bc 083f 1fbe
00000340: 82cb 43be 6523 42be d80d 04bd 655c 523e
00000350: 9ac5 2dbe 707d b73c 303e 86bc a37d 40be
00000360: ec7f 28bd 9eb0 903d ba35 16be 7a3f ec3d
00000370: 9032 64bd 8fa7 d5bd 0183 43be 2081 69bd
00000380: 6eee 25be 7e1f 873d acd3 46bd cab1 db3d
00000390: c0ce 453c f4fd 053d 7d3d f9bd 34d3 453d
000003a0: 4e8b 13be eb65 253e 4da3 42be a4b3 cbbd
000003b0: 60a2 e9bd a454 58bd c110 1fbe 9696 ac3d
000003c0: e086 23be 40ca 023d e76e 4cbe 54c6 783d
000003d0: 3fda 493e 1304 e9bd c0fa 96bc 323c ff3d
000003e0: e0ad f0bc 8ca9 3abe a0b1 23be 4c30 9dbd
000003f0: 1240 17be 2824 cabc 01b5 393e c086 d03c

bias f4 [256]
0.18086497 0.19244088 -0.033288375 0.107769266 0.046042994 -0.039356798 0.010359317 0.077095464
-0.16318125 0.15408437 -0.007979751 0.15356974 -0.13148637 -0.087350816 -0.09533844 -0.11124705
0.030226111 -0.1393527 0.15141068 -0.023108304 0.01950343 -0.14785592 -0.14765017 0.033380643
-0.08081962 -0.18099046 -0.14416163 0.04315187 -0.12773736 0.059868947 0.07823454 -0.17116629
0.17027296 -0.12789363 -0.11614166 -0.16562063 0.07086231 -0.14413272 -0.09705053 -0.19890699
0.17191009 -0.17579529 -0.18819785 0.18492411 0.09750579 0.16285108 0.18191995 0.18074594
0.14648412 -0.1490371 -0.15960425 0.041981474 -0.15502194 -0.11411354 -0.028678179 0.11028309
0.18599804 -0.16036701 -0.13851264 0.0010341406 0.110389575 -0.20170997 0.09742133 -0.10165377
0.113320395 0.113641426 0.13482554 -0.16971716 0.13488404 0.20240857 0.19160925 0.18930955
-0.100713335 -0.11057082 0.17293106 0.10534151 -0.0684852 0.15033482 -0.20074508 0.04047869
0.06741573 0.07832013 -0.062471613 -0.17958324 0.11504845 0.1720327 0.07067765 -0.057507917
0.017339975 0.14255561 0.008864254 0.09433727 -0.09849459 0.045265064 0.024184704 -0.143507
-0.1373618 -0.12844963 0.0034015179 0.09306203 0.15141805 -0.12269438 -0.029457733 -0.0033402592
0.14597861 -0.01931335 -0.010880813 -0.026159674 0.12666346 -0.11587139 -0.2044259 -0.081389815
0.025744438 -0.09781819 0.11483972 -0.044326067 -0.1913363 -0.08642311 -0.028197289 -0.15834753
-0.074054256 -0.042835474 -0.1173985 -0.14532295 -0.06375989 0.009761542 0.0600567 -0.09897323
0.15781151 -0.14532703 0.025696173 0.0009724796 -0.13671073 -0.14884965 0.16038509 0.15001507
-0.15751962 0.0058086216 -0.20563412 0.11138593 0.062498406 0.13855375 -0.15750206 0.06543444
-0.05817187 0.18862619 -0.10084515 -0.17053422 -0.07054867 -0.13342665 0.11358173 -0.09042141
-0.20797993 -0.10643024 -0.047972754 0.060186014 0.19437425 -0.085003555 -0.0048399717 0.16213001
0.10737066 0.19806798 -0.13227734 -0.20731474 0.19158347 -0.11956062 0.13486092 -0.10296534
0.15383373 -0.110968284 0.14575915 -0.10225106 0.1853505 0.16333036 -0.0053884387 -0.10592065
0.037697956 -0.17529604 0.023159698 0.03684178 -0.13453275 0.11392416 0.039402917 0.13869764
0.013938233 0.19227879 -0.0147394985 -0.13129482 0.09636159 0.04916562 0.058598354 0.1425647
0.11340903 0.1851917 0.06079273 -0.14289886 0.093511775 0.09205608 -0.17789909 -0.17429134
-0.019969746 0.060339674 -0.18865286 -0.028897315 -0.0059664696 0.18289264 0.19522493 0.04664792
0.08916448 -0.06530444 0.049889967 0.02155818 -0.20388512 0.20558365 0.13001339 0.10229115
0.099667355 0.12731804 0.03054142 -0.106363 -0.18116489 -0.13721529 -0.18070555 0.08046602
0.018317133 -0.20699374 0.05703883 0.004667744 -0.19279586 -0.06527606 0.15721954 -0.08015154
-0.1774449 0.17604212 -0.063519076 -0.1860712 -0.09450201 -0.09914189 -0.04168676 0.07637136
-0.12688474 0.09504785 -0.11122011 -0.0044196546 0.001164496 -0.15383095 -0.044234037 0.005421087
-0.20546919 0.13813333 -0.20434237 0.18277578 -0.0075399727 -0.20112996 0.1949114 0.10057585
00000000: ab34 393e 390f 453e 6459 08bd 22b6 dc3d
00000010: 9497 3c3d 9834 21bd 20ba 293c 3ae4 9d3d
00000020: fc18 27be 4bc8 1d3e 80bd 02bc 6341 1d3e
00000030: 5da4 06be fce4 b2bd cd40 c3bd 7ed5 e3bd
00000040: c09c f73c 79b2 0ebe 670b 1b3e a04d bdbc
00000050: a8c5 9f3c 8b67 17be 9b31 17be 24ba 083d
00000060: c284 a5bd 9055 39be 1b9f 13be 04c0 303d
00000070: 95cd 02be 2439 753d 6e39 a03d 3746 2fbe
00000080: 095c 2e3e 8cf6 02be aedb edbd 7498 29be
00000090: 4220 913d 8797 13be 6ec2 c6bd 46ae 4bbe
000000a0: 3309 303e ae03 34be f0b6 40be bf5c 3d3e
000000b0: 1eb1 c73d 6fc2 263e 3949 3a3e 7715 393e
000000c0: efff 153e 2e9d 18be 4c6f 23be c4f4 2b3d
000000d0: 12be 1ebe 5cb4 e9bd 80ee eabc 1adc e13d
000000e0: 4576 3e3e 4037 24be 42d6 0dbe 008c 873a
000000f0: ee13 e23d 0f8d 4ebe d684 c73d da2f d0bd
00000100: 8614 e83d d6bc e83d b50f 0a3e 56ca 2dbe
00000110: 0b1f 0a3e 3144 4f3e 3735 443e 5dda 413e
00000120: cb42 cebd f472 e2bd d714 313e 4abd d73d
00000130: f841 8cbd 5ff1 193e 1e90 4dbe fccc 253d
00000140: 4211 8a3d 4e66 a03d 3ce2 7fbd abe4 37be
00000150: 869e eb3d 5729 303e 72bf 903d 6c8d 6bbd
00000160: 900c 8e3c 19fa 113e 603b 113c e633 c13d
00000170: 88b7 c9bd dc67 393d 001f c63c 80f3 12be
00000180: 92a8 0cbe 4d88 03be 00ec 5e3b 4e97 be3d
00000190: 550d 1b3e 3147 fbbd 5851 f1bc 40e8 5abb
000001a0: 6b7b 153e 0837 9ebc 7045 32bc d04c d6bc
000001b0: 11b4 013e fb4d edbd 0655 51be b4af a6bd
000001c0: 00e6 d23c e754 c8bd 1631 eb3d 408f 35bd
000001d0: aaed 43be 99fe b0bd 00fe e6bc db25 22be
000001e0: c2a9 97bd 4074 2fbd a06e f0bd 8acf 14be
000001f0: 8c94 82bd e0ee 1f3c 04fe 753d 7ab2 cabd
00000200: 5799 213e 9cd0 14be c880 d23c 00ee 7e3a
00000210: e6fd 0bbe 0b6c 18be fd3b 243e 8d9d 193e
00000220: d34c 21be 4056 be3b c091 52be 4e1e e43d
00000230: 54fe 7f3d 09e1 0d3e 3848 21be 7e02 863d
00000240: a045 6ebd 3927 413e e787 cebd 86a0 2ebe
00000250: d27b 90bd ffa0 08be 8a9d e83d dc2e b9bd
00000260: b1f8 54be 19f8 d9bd 147f 44bd 9c85 763d
00000270: 0b0a 473e 5816 aebd a098 9ebb 6905 263e
00000280: 26e5 db3d 55d2 4a3e b673 07be 514a 54be
00000290: 752e 443e 33dc f4bd fb18 0a3e 7edf d2bd
000002a0: 9786 1d3e 5743 e3bd e341 153e 0169 d1bd
000002b0: 85cc 3d3e 1340 273e 8091 b0bb edec d8bd
000002c0: 2c69 1a3d ce80 33be 68b9 bd3c 68e7 163d
000002d0: f4c2 09be 1251 e93d f464 213d c106 0e3e
000002e0: 305d 643c bbe4 443e f07d 71bc 2672 06be
000002f0: 3a59 c53d e461 493d d404 703d 7bfc 113e
00000300: fe42 e83d e5a2 3d3e cc01 793d 1454 12be
00000310: 1a83 bf3d e687 bc3d 2e2b 36be 6e79 32be
00000320: 9897 a3bc bc26 773d 372e 41be 10ba ecbc
00000330: 6082 c3bb 3548 3b3e 0be9 473e e411 3f3d
00000340: de9b b63d 56be 85bd 6c59 4c3d c89a b03c
00000350: 43c7 50be 8584 523e 3b22 053e 067e d13d
00000360: 661e cc3d a95f 023e 0032 fa3c d8d4 d9bd
00000370: 4a83 39be 2a82 0cbe e00a 39be 5ecb a43d
00000380: d00d 963c 2bf6 53be 8ca1 693d e0f3 983b
00000390: 476c 45be 74af 85bd 29fe 203e 7e26 a4bd
000003a0: 1eb4 35be 6344 343e 4a16 82bd 7389 3ebe
000003b0: 458a c1bd e70a cbbd bcbf 2abd 9668 9c3d
000003c0: 13ee 01be 72a8 c23d 5ec7 e3bd c0d2 90bb
000003d0: 00a2 983a dc85 1dbe c02e 35bd 60a3 b13b
000003e0: 8466 52be d372 0d3e 203f 51be 9329 3b3e
000003f0: e011 f7bb 03f5 4dbe db96 473e b6fa cd3d

weight f4 [1, 256]
0.0577202 0.012160607 -0.03334421 -0.022944666 0.0552627 -0.01847551 -0.024631895 0.044201985
0.049867034 0.04981681 0.00556086 0.03091468 0.024287239 0.05755665 0.008424826 0.014182955
0.06221959 0.058791712 -0.027688317 -0.061564222 -0.030732177 -0.026492871 0.022502862 -0.030072138
0.061636522 0.036932558 0.024777085 -0.04492394 -0.04032685 0.036950603 -0.008870684 0.056075506
0.05965306 0.03070677 -0.04252281 0.014055438 -0.0145538375 0.03522349 -0.0063005984 -0.030846663
-0.009843104 0.023065776 -0.01746548 -0.035131194 -0.011374347 0.0017960444 -0.046468474 0.036642894
-0.011556134 0.0067093447 -0.020408235 0.021725252 0.016346745 0.018692195 -0.015135124 -0.029549822
0.0039001927 0.04882153 0.055409566 -0.04112474 0.0494812 0.037595645 0.05380767 -0.051647216
0.014248766 0.0010693148 -0.026004024 0.027332328 -0.05872932 0.043349728 0.02135361 -0.04141493
-0.044200346 0.019802704 0.02644714 -0.035163634 -0.036846906 -0.012083985 -0.010524154 0.026353009
0.0065305755 0.03520041 -0.011349283 0.057844616 -0.05855456 -0.045871235 0.016075708 -0.0028520897
0.041465946 -0.026483282 -0.009405777 0.042608738 -0.010217421 0.010882288 0.05401299 -0.00095419586
0.027563795 0.02678094 0.02571667 -0.0023919493 0.020780802 -0.047865726 0.0003542453 0.058160543
0.047662288 -0.04109638 0.013368636 0.05186817 0.049617082 -0.02969294 -0.051428005 0.005841434
0.028869033 -0.011069797 -0.032329112 -0.05290761 0.014845043 -0.018131778 0.04002329 -0.0066578537
-0.04941055 0.06103634 -0.0020650923 -0.05351121 -0.019393995 0.02507814 -0.053769127 0.04531224
0.011580348 0.05933258 0.014437847 0.024120651 0.0025712848 0.0028797314 -0.03417766 -0.038936205
0.00033084303 -0.0606924 0.017676048 -0.014239952 0.017728738 0.005408719 0.021661617 -0.034969173
0.0007617399 0.03627956 -0.059969455 0.03659779 0.0026288927 0.042552225 0.045085505 -0.05586756
-0.0014654547 0.009966627 0.028479181 0.031820446 0.034718648 -0.016905725 -0.024996988 -0.052923374
-0.010631397 -0.05599407 -0.004601568 0.018460467 0.02160883 0.051674403 -0.04612881 0.05252818
-0.035906278 -0.0424357 -0.03406416 0.044099472 -0.05960086 0.0016616285 -0.004507348 0.05752547
0.047097288 -0.0060368925 -0.05343783 0.012970246 -0.02297324 -0.044210173 -0.05925516 0.021223523
-0.014796637 -0.01782544 0.0362394 0.05938696 0.01086089 -0.034941025 -0.01949118 -0.038981915
0.037660964 0.0030374005 0.009526625 0.038073033 -0.0027631223 0.012188561 0.05132506 0.005005263
0.00680428 -0.01519727 -0.035991713 0.014901139 0.0069019496 0.060520656 0.038551286 -0.048284367
0.02907154 -0.0045878068 0.059834994 -0.05196479 -0.030336864 -0.059055835 -0.05298218 -0.04065849
0.03001117 -0.015956283 -0.052070096 -0.05177802 -0.046067216 0.018101506 -0.0270883 -0.023370735
-0.058510654 -0.0046175197 -0.03879647 0.0057963803 -0.01289542 -0.01351843 0.04750949 -0.008402586
-0.034053735 0.0016905665 -0.03210435 -0.031037413 -0.057861947 -0.020473167 0.008618981 0.02810467
-0.030258074 -0.0068782493 -0.054665126 0.036979906 0.044472747 -0.03647197 -0.047534846 -0.06045381
-0.011162356 -0.046404123 -0.05516742 0.031173088 -0.055927917 -0.058672205 0.024701595 0.007558115
00000000: 046c 6c3d 483d 473c f093 08bd 74f6 bbbc
00000010: 245b 623d f459 97bc d4c8 c9bc 240d 353d
00000020: 6041 4c3d b60c 4c3d e037 b63b c840 fd3c
00000030: 08f6 c63c 86c0 6b3d 4808 0a3c a05f 683c
00000040: f8d9 7e3d 94cf 703d 9cd2 e2bc c42a 7cbd
00000050: 0cc2 fbbc 9407 d9bc ec57 b83c d859 f6bc
00000060: 9476 7c3d 9846 173d 50f9 ca3c 2a02 38bd
00000070: c42d 25bd 8459 173d 5856 11bc 6eaf 653d
00000080: c456 743d c48c fb3c 662c 2ebd c848 663c
00000090: 3873 6ebc 8246 103d 4075 cebb 24b2 fcbc
000000a0: f844 21bc 70f4 bc3c c413 8fbc bae5 0fbd
000000b0: 785b 3abc 4069 eb3a ba55 3ebd dc16 163d
000000c0: f055 3dbc 10da db3b 2c2f a7bc 28f9 b13c
000000d0: 9ce9 853c 6020 993c 50f9 77bc 7812 f2bc
000000e0: 609a 7f3b 16f9 473d 24f5 623d 6a72 28bd
000000f0: ccac 4a3d e4fd 193d 6e65 5c3d 088c 53bd
00000100: a873 693c 4028 8c3a 6406 d5bc 0ce8 df3c
00000110: 288e 70bd 7c8f 313d c4ed ae3c b4a2 29bd
00000120: 6c0b 35bd 4839 a23c aca7 d83c be07 10bd
00000130: c8ec 16bd e8fb 45bc 806d 2cbc 44e2 d73c
00000140: 70fe d53b 4e2e 103d 58f2 39bc 7aee 6c3d
00000150: e8d6 6fbd 7ae3 3bbd 34b1 833c 20ea 3abb
00000160: 32d8 293d 78f3 d8bc b01a 1abc 8086 2e3d
00000170: f866 27bc a04b 323c ba3c 5d3d 0023 7aba
00000180: 78cd e13c b463 db3c c4ab d23c 40c2 1cbb
00000190: 803c aa3c da0e 44bd 00ba b939 c039 6e3d
000001a0: 8839 433d ae54 28bd 2008 5b3c b873 543d
000001b0: 483b 4b3d 9c3e f3bc 2ca6 52bd 8069 bf3b
000001c0: c07e ec3c 185e 35bc 886b 04bd a6b5 58bd
000001d0: a038 733c 1889 94bc 76ef 233d 202a dabb
000001e0: b862 4abd 3e01 7a3d 8056 07bb 922e 5bbd
000001f0: 28e0 9ebc ac70 cd3c 043d 5cbd 5499 393d
00000200: 80bb 3d3c b806 733d b88c 6c3c ac98 c53c
00000210: 0083 283b e0b9 3c3b e0fd 0bbd 927b 1fbd
00000220: 0075 ad39 9898 78bd 5ccd 903c b04e 69bc
00000230: dc3b 913c a03b b13b b473 b13c d63b 0fbd
00000240: 80af 473a e099 143d 88a2 75bd 90e7 153d
00000250: 8049 2c3b 3e4b 2e3d 94ab 383d 62d5 64bd
00000260: 8014 c0ba 104b 233c 2c4d e93c 2856 023d
00000270: 2435 0e3d e07d 8abc 7cc6 ccbc 2ec6 58bd
00000280: 502f 2ebc 0a5a 65bd c0c8 96bb 683a 973c
00000290: 0005 b13c 8aa8 533d 90f1 3cbd ca27 573d
000002a0: 7612 13bd 0ed1 2dbd dc86 0bbd a6a1 343d
000002b0: 0820 74bd 00cb d93a 60b2 93bb d49f 6b3d
000002c0: 16e9 403d 20d1 c5bb a0e1 5abd 2881 543c
000002d0: 6032 bcbc ba15 35bd 8ab5 72bd f4dc ad3c
000002e0: 986d 72bc a806 92bc c46f 143d be3f 733d
000002f0: e0f1 313c 521e 0fbd f8ab 9fbc 80ab 1fbd
00000300: 6242 1a3d 200f 473b 9015 1c3c 78f2 1b3d
00000310: 8015 35bb 88b2 473c 3a3a 523d 3003 a43b
00000320: 70f6 de3b f8fd 78bc 0c6c 13bd e823 743c
00000330: c029 e23b 82e4 773d f4e7 1d3d d4c5 45bd
00000340: 7027 ee3c 5055 96bb 8a15 753d 08d9 54bd
00000350: 0485 f8bc 88e4 71bd d803 59bd 8489 26bd
00000360: fcd9 f53c c0b6 82bc 7447 55bd 3015 54bd
00000370: fab0 3cbd 9c49 943c 48e8 ddbc fc73 bfbc
00000380: dea8 6fbd 904e 97bb 0ce9 1ebd 90ef bd3b
00000390: 5047 53bc 687c 5dbc 5099 423d 00ab 09bc
000003a0: ee7b 0bbd 0096 dd3a da7f 03bd 2c42 febc
000003b0: a600 6dbd 58b7 a7bc a036 0d3c c43b e63c
000003c0: c8df f7bc f062 e1bb 8ae8 5fbd 3e78 173d
000003d0: 0e29 363d a263 15bd e6b3 42bd 6a9e 77bd
000003e0: 50e2 36bc 4012 3ebd 3cf7 61bd b45e ff3c
000003f0: ac14 65bd 4452 70bd 005b ca3c 10aa f73b

weight f4 [128, 23]
-0.14860645 -0.091191 -0.14446548 -0.1732612 -0.06754878 -0.094809085 -0.18326889 -0.12132188
0.0069470257 -0.18071283 0.06922473 -0.107240945 -0.111078866 0.033712626 0.097579196 -0.16097488
-0.0942171 -0.19399622 0.010809645 0.08179869 -0.07399823 0.10419594 -0.20602393 0.019299427
-0.086963795 0.0884298 0.025920952 0.15416805 0.17109145 0.18468197 0.05107558 -0.077908665
-0.09739259 0.08343791 -0.14600274 -0.15062772 0.08180177 0.15916263 0.15773255 -0.0020410689
-0.002086704 0.05806093 -0.055195082 0.018446943 0.08308497 -0.10222989 0.13899514 -0.15593256
-0.17210142 -0.15631528 0.08706135 0.14207602 -0.01335983 0.14120556 0.084848404 -0.13974659
0.11174405 -0.17638884 -0.18652776 -0.0011070656 -0.19898382 0.1648816 -0.09869176 -0.19772032
0.17015256 0.083432354 -0.0720767 0.0949355 0.1536874 -0.028279457 -0.119266614 0.04558678
0.11956041 0.16491549 -0.14368454 0.19134475 -0.17097804 0.20009804 -0.06699346 -0.20291062
-0.054727066 -0.063741945 0.016290851 -0.108302444 0.05632334 0.15870151 0.19025108 -0.0058869305
-0.05191004 0.19186588 0.09031515 -0.19148484 -0.17399889 -0.029078495 -0.09076767 -0.025463212
0.15203525 -0.027882801 -0.044444513 -0.16972482 -0.03604681 0.078043275 -0.02926364 0.051541038
-0.16678753 0.14654252 0.18848956 0.08853134 0.17228189 -0.18164416 -0.054528777 0.21189776
-0.043254547 -0.09887988 -0.075211465 0.0563717 -0.19811885 -0.19025041 -0.010048903 -0.07919668
0.007147526 -0.20516382 0.06974433 -0.1530137 -0.1498608 -0.1413602 -0.018996626 -0.11787801
-0.008964121 -0.19837824 -0.19702263 -0.20534228 -0.20781013 0.10175119 0.07441692 0.08936714
0.20303822 -0.13622566 -0.18436429 0.1729489 -0.17791532 0.19979268 0.04754434 0.19325583
0.06417418 0.0616973 0.13314827 0.07673643 -0.07235594 -0.025591219 -0.19236699 -0.008591754
-0.1247688 0.0981871 0.13260697 -0.0009178035 0.011794844 -0.0905392 -0.14116636 -0.15375237
0.029829938 0.055965923 -0.039928213 -0.01952489 -0.119597346 0.020545095 0.12614405 0.0921183
0.061947692 -0.019030297 0.19198048 0.101313904 -0.04212013 -0.17452553 0.09016466 0.15581106
0.1336952 -0.088078804 0.115858994 0.19650993 -0.052136727 0.05326551 -0.16865762 -0.0764775
0.09886676 0.021720702 -0.12799436 -0.19132282 -0.013060505 -0.12710318 0.10102551 0.02382989
-0.1176436 -0.17872098 -0.01043425 0.18076931 0.12737833 -0.08924031 0.18042198 0.12261299
0.09509987 -0.10652497 0.032151796 0.1694533 0.20137395 -0.1915357 -0.14084981 -0.18310225
0.1754374 -0.08687758 0.19604401 0.09640248 -0.10264125 -0.13197999 -0.1574921 -0.19472915
-0.06453811 0.008986026 0.173534 0.11537452 -0.10175915 -0.14202501 -0.14747134 -0.13833515
-0.13149738 -0.032366913 -0.012724083 -0.035882253 0.00852936 -0.11211382 0.16180019 -0.19592331
-0.042012803 -0.09820165 0.12002363 0.08410914 0.09265685 -0.103133164 -0.039072607 0.17476803
0.13398254 0.031336848 -0.12224246 0.067898154 -0.023205902 -0.076942205 -0.16730958 -0.05297175
-0.036338236 -0.16202356 0.17178647 -0.07212862 -0.08475789 0.14289388 0.026556045 -0.02980849
00000000: 4a2c 18be 59c2 babd c2ee 13be 626b 31be
00000010: 0457 8abd 442b c2bd d7aa 3bbe 9b77 f8bd
00000020: e0a3 e33b c90c 39be b2c5 8d3d 24a1 dbbd
00000030: 517d e3bd 4016 0a3d 9ad7 c73d 99d6 24be
00000040: e5f4 c0bd f2a6 46be f01a 313c 1286 a73d
00000050: 628c 97bd ae64 d53d f0f7 52be d519 9e3c
00000060: 131a b2bd af1a b53d 2d58 d43c 3bde 1d3e
00000070: 9932 2f3e 451d 3d3e a134 513d 948e 9fbd
00000080: c475 c7bd 7fe1 aa3d be81 15be 273e 1abe
00000090: b087 a73d 87fb 223e a484 213e 74c3 05bb
000000a0: 15c1 08bb 4cd1 6d3d 3d14 62bd 0b1e 973c
000000b0: 7428 aa3d e85d d1bd be54 0e3e c9ac 1fbe
000000c0: 5b3b 30be 1d11 20be 394d b23d 607c 113e
000000d0: 30e3 5abc 3198 103e 00c5 ad3d bb19 0fbe
000000e0: 11da e43d 479f 34be 2201 3fbe f51a 91ba
000000f0: 6ac2 4bbe b9d6 283e e81e cabd 3277 4abe
00000100: 793c 2e3e 95de aa3d f39c 93bd 8b6d c23d
00000110: 3b60 1d3e 52aa e7bc 0e42 f4bd 34b9 3a3d
00000120: 17dc f43d 9bdf 283e 0a22 13be e1ef 433e
00000130: de14 2fbe 80e6 4c3e de33 89bd cdc7 4fbe
00000140: 7d29 60bd 238b 82bd 6474 853c accd ddbd
00000150: 4db3 663d a682 223e 2ed1 423e 27e7 c0bb
00000160: 9f9f 54bd 7d78 443e 26f7 b83d 9a14 44be
00000170: c42c 32be 0636 eebc 66e4 b9bd 3a98 d0bc
00000180: 21af 1b3e 796a e4bc 730b 36bd 58cc 2dbe
00000190: d2a5 13bd 27d5 9f3d 4dba efbc b21c 533d
000001a0: 5aca 2abe 3e0f 163e 6803 413e eb4f b53d
000001b0: aa6a 303e ed00 3abe 9159 5fbd bafb 583e
000001c0: ae2b 31bd 8981 cabd 7808 9abd 03e6 663d
000001d0: abdf 4abe 01d1 42be 27a4 24bc de31 a2bd
000001e0: cb35 ea3b 7716 52be 1ed6 8e3d a0af 1cbe
000001f0: 1c75 19be bac0 10be d09e 9bbc 076a f1bd
00000200: 40de 12bc aa23 4bbe 4dc0 49be 3f45 52be
00000210: 2ecc 54be ee62 d03d e667 983d 1e06 b73d
00000220: 40e9 4f3e bd7e 0bbe fec9 3cbe 8419 313e
00000230: 6f2f 36be 7496 4c3e dbbd 423d dbe4 453e
00000240: c16d 833d 4fb6 7c3d 0558 083e fd27 9d3d
00000250: 5a2f 94bd ada4 d1bc dafb 44be 6ec4 0cbc
00000260: c986 ffbd 5116 c93d 1fca 073e c098 70ba
00000270: 293f 413c 9e6c b9bd ea8d 10be 4371 1dbe
00000280: ea5d f43c 863c 653d c48b 23bd aaf2 9fbc
00000290: 74ef f4bd 304e a83c e82b 013e 85a8 bc3d
000002a0: ddbc 7d3d 6de5 9bbc 8896 443e aa7d cf3d
000002b0: 2886 2cbd d2b6 32be 40a8 b83d ef8c 1f3e
000002c0: 65e7 083e a962 b4bd 7b47 ed3d e639 493e
000002d0: 528d 55bd ef2c 5a3d 95b4 2cbe 3ca0 9cbd
000002e0: a87a ca3d 9def b13c f410 03be 21ea 43be
000002f0: bafb 55bc 5627 02be 76e6 ce3d e736 c33c
00000300: 21ef f0bd a202 37be 6bf4 2abc 971b 393e
00000310: 776f 023e a0c3 b6bd 8ac0 383e 851c fb3d
00000320: b8c3 c23d c329 dabd 9ab1 033d 2a85 2d3e
00000330: f934 4e3e ef21 44be ef3a 10be 287f 3bbe
00000340: dda5 333e dfec b1bd c3bf 483e aa6e c53d
00000350: 9335 d2bd c325 07be 9c45 21be 1467 47be
00000360: 8e2c 84bd 203a 133c e6b2 313e 7a49 ec3d
00000370: 1a67 d0bd 016f 11be ba02 17be bba7 0dbe
00000380: 40a7 06be 2b93 04bd ac78 50bc 45f9 12bd
00000390: bbbe 0b3c ee9b e5bd f3ae 253e 1fa0 48be
000003a0: 9e15 2cbd f21d c9bd f3ce f53d 6a41 ac3d
000003b0: e0c2 bd3d 7b37 d3bd 990a 20bd 64f6 323e
000003c0: b832 093e 115b 003d 415a fabd 300e 8b3d
000003d0: 4e1a bebc e093 9dbd 3453 2bbe e8f8 58bd
000003e0: 67d7 14bd 81e9 25be cbe8 2f3e 2cb8 93bd
000003f0: 8b95 adbd c652 123e 108c d93c ef30 f4bc

bias f4 [128]
0.19662024 -0.07159521 -0.12926017 -0.19712411 -0.09003873 0.16475888 0.053577475 -0.15279679
0.043067213 0.12034076 -0.11362604 -0.20597929 0.08388774 0.11394532 -0.007726656 -0.08191295
-0.045445964 0.011496909 -0.19996066 0.075909816 0.18900698 0.19448191 0.19313876 -0.13963081
0.11735034 0.07710646 0.16705857 0.010668182 -0.046894815 -0.17025071 0.05644449 -0.14236176
-0.16869155 0.058010016 0.0038419557 -0.039809246 -0.114596836 0.10761242 0.11663889 0.13255842
-0.090703204 0.05178332 0.12397431 -0.12750895 0.20251152 0.094396874 0.1635657 -0.014804438
-0.03163751 -0.20048435 -0.017752012 0.18066628 0.14488128 -0.072375365 -0.20042181 0.15431987
0.025606863 -0.116470516 0.08766421 0.062223002 -0.17253517 0.085111275 -0.0550923 -0.07790756
0.047460716 0.005754989 0.06024811 -0.18960223 0.081801645 -0.16696264 0.15536015 -0.026524182
0.07650846 0.19281262 -0.1379338 0.19746712 -0.17065133 0.04463271 -0.027314926 0.18760616
-0.022589704 0.042884607 -0.10476602 -0.20215097 0.12947832 -0.03233792 -0.075015545 -0.08495378
0.038532205 0.20288122 0.045983717 -0.106619686 0.008585652 -0.094634935 -0.17839289 0.13104413
0.11528446 0.027829327 0.059203275 -0.19998774 -0.18553439 0.15238437 0.21093307 0.11098103
0.1582102 0.066308215 0.043852527 -0.21264906 -0.10589579 0.050068274 0.0059950724 -0.17562048
-0.09444536 -0.08006719 0.08515705 -0.1805483 -0.18814842 -0.16103032 0.15911599 0.12177698
-0.19292599 0.027407834 -0.0755101 -0.08695922 0.10440384 0.032184023 -0.18883762 0.053921733
00000000: d156 493e 82a0 92bd c75c 04be e7da 49be
00000010: 3a66 b8bd 8db6 283e 0e74 5b3d c376 1cbe
00000020: 3f67 303d 3775 f63d c5b4 e8bd 3cec 52be
00000030: 56cd ab3d 2a5c e93d e32f fdbb fac1 a7bd
00000040: 8c25 3abd 885d 3c3c 7dc2 4cbe 9b76 9b3d
00000050: 0c8b 413e 4426 473e 2bc6 453e 61fb 0ebe
00000060: 6055 f03d fee9 9d3d 6711 2b3e 99c9 2e3c
00000070: c714 40bd 3456 2ebe 5632 673d 48c7 11be
00000080: 7abd 2cbe e99b 6d3d 52c9 7b3b 050f 23bd
00000090: bfb1 eabd e763 dc3d 5fe0 ee3d 65bd 073e
000000a0: 9ac2 b9bd bf1a 543d 3ee6 fd3d b591 02be
000000b0: 2e5f 4f3e 2653 c13d c47d 273e 508e 72bc
000000c0: 5596 01bd c54b 4dbe ab6c 91bc 9500 393e
000000d0: c25b 143e 8939 94bd 603b 4dbe 0706 1e3e
000000e0: 7cc5 d13c 1888 eebd 4b89 b33d 8cdd 7e3d
000000f0: 0fad 30be d24e ae3d 77a8 61bd 008e 9fbd
00000100: 2b66 423d 5994 bc3b b9c6 763d 1627 42be
00000110: 9f87 a73d 41f8 2abe bb16 1f3e 3e49 d9bc
00000120: 78b0 9c3d ac70 453e 853e 0dbe d234 4a3e
00000130: 39bf 2ebe cad0 363d 8dc3 dfbc d41b 403e
00000140: 0b0e b9bc c5a7 2f3d 918f d6bd aa00 4fbe
00000150: f795 043e c474 04bd c0a1 99bd 3ffc adbd
00000160: f2d3 1d3d 18c0 4f3e 6c59 3c3d 6c5b dabd
00000170: d6aa 0c3c f6cf c1bd a0ac 36be 6f30 063e
00000180: 421a ec3d 54fa e33c 227f 723d 96c9 4cbe
00000190: bafc 3dbe a60a 1c3e d7fe 573e 064a e33d
000001a0: db01 223e 9acc 873d b59e 333d adc0 59be
000001b0: e4df d8bd 6414 4d3d 5072 c43b dbd5 33be
000001c0: 926c c1bd 44fa a3bd d266 ae3d a7e1 38be
000001d0: fba9 40be 22e5 24be 4def 223e 3666 f93d
000001e0: 648e 45be 6586 e03c 0aa5 9abd ad17 b2bd
000001f0: aed1 d53d 65d3 033d a65e 41be 09dd 5c3d

weight f4 [256, 128]
0.075150736 -0.04162744 0.056278817 -0.048620075 -0.08804831 0.04938609 -0.03006402 0.012672976
0.055499755 0.04668673 -0.028581642 -0.0014728606 -0.002754055 -0.048111197 -0.057545904 0.027997151
0.010379359 -0.076646656 0.02879554 -0.00076214224 0.004987687 0.018674776 -0.0075277314 0.03815975
-0.011502072 -0.00260593 -0.009300068 0.03170353 0.03776794 0.029817685 -0.07056075 0.026573263
0.047547854 0.027774267 0.016407862 0.01838021 -0.07941227 -0.009683825 -0.016765542 -0.056500517
-0.009375595 0.055478595 0.086738326 0.04211501 0.081457324 -0.064692006 0.061894126 -0.0871368
-0.007336825 -0.027347486 -0.030829523 0.085964285 -0.07272457 -0.08814867 -0.027355652 -0.08549977
0.057066776 0.024555162 -0.022322193 -0.0098002255 -0.022140339 0.049775876 -0.013573885 -0.03965934
-0.06290516 -0.08376941 -0.0033916384 0.07581026 -0.026125368 -0.08494177 -0.07492579 0.0194496
0.049430944 -0.051616244 -0.014838532 0.020826675 -0.08357329 0.01616089 -0.072443455 -0.02419857
-0.053467005 0.02091004 -0.036658052 -0.03142594 -0.057775617 0.085496135 -0.070126034 0.0080501735
0.057186566 -0.023086272 0.085254036 -0.06294132 0.037062414 -0.059871547 -0.016042605 -0.009622917
-0.028620861 -0.013059124 0.08360248 0.013414428 -0.018391095 0.008824073 0.053969763 -0.06564885
0.011835486 -0.014729261 -0.0019564778 -0.03482825 -0.07810236 -0.0682773 0.045003302 0.016519286
-0.011232048 0.062096693 0.06694364 0.06124594 -0.05757375 0.05233132 -0.01180727 -0.037683148
0.057846896 -0.032773945 0.085962154 0.018541284 0.00072266906 -0.019054368 -0.053014055 -0.0314504
0.02607347 -0.06335579 0.0856656 0.0045601684 0.08218301 0.0739091 0.06127526 -0.077576265
0.053085532 -0.03742678 0.061296564 -0.033680227 0.052473538 -0.03252018 0.045357537 -0.01561942
-0.06858602 0.07052777 0.009676315 -0.010276303 -0.07721335 0.0037812886 0.053495225 0.059189264
0.034019712 -0.07250364 0.08204373 -0.050951593 0.049728207 0.03964257 -0.055512253 -0.0017231841
0.03765594 0.039739102 -0.016958578 -0.012224362 0.05018117 0.046023015 -0.0153575055 -0.060924172
0.024354722 0.028342403 0.023124384 0.042586587 -0.03805755 0.007371252 -0.04182059 0.08692799
0.051142175 0.010088291 0.051738337 -0.0025735912 -0.021253638 0.09232842 -0.08042189 -0.06646804
-0.050873354 0.06487318 0.042282984 0.03206799 -0.013027906 -0.0024655354 -0.022232119 -0.06194321
-0.048098005 -0.06046465 -0.07478405 -0.05464359 -0.06755614 -0.015586289 0.06521487 0.08027336
-0.08691647 0.061480787 -0.027435897 0.053253394 0.060659427 0.08045449 -0.018296063 0.00045976593
0.027254036 0.050575905 0.010371618 -0.05094612 0.018663965 0.005926743 -0.033245407 0.041480787
-0.06781838 -0.038231153 -0.02755947 -0.06524342 0.02889462 -0.048576012 0.024880774 0.029083958
-0.021510335 0.02729805 0.0042230254 -0.0049299058 -0.06022342 -0.0657106 0.026105987 -0.067420416
-0.017862143 0.0067226877 -0.07019747 0.005220283 -0.070861615 0.034595374 -0.044111837 -0.03992647
-0.013493776 0.035751574 0.08184155 0.015967902 0.0301585 0.017314272 0.0039784773 -0.074833445
-0.025945393 -0.071672186 0.027521687 -0.026227996 0.06704869 0.0010988679 -0.079268076 0.045680266
00000000: a1e8 993d 8981 2abd 9e84 663d d825 47bd
00000010: ac52 b4bd 1249 4a3d d248 f6bc 50a2 4f3c
00000020: b653 633d 963a 3f3d 0c24 eabc 000d c1ba
00000030: 607d 34bb 3f10 45bd 41b5 6bbd 485a e53c
00000040: 300e 2a3c ecf8 9cbd a0e4 eb3c 80ca 47ba
00000050: c06f a33b d8fb 983c 30ab f6bb 664d 1c3d
00000060: 3073 3cbc 40c8 2abb 505f 18bc 90db 013d
00000070: 8eb2 1a3d 3844 f43c 2882 90bd 2cb0 d93c
00000080: 8ac1 423d dc86 e33c c869 863c 1892 963c
00000090: e6a2 a2bd e8a8 1ebc e457 89bc 166d 67bd
000000a0: 189c 19bc 863d 633d dda3 b13d ca80 2c3d
000000b0: 19d3 a63d 3e7d 84bd b284 7d3d c774 b2bd
000000c0: c069 f0bb d607 e0bc 328e fcbc 0b0e b03d
000000d0: 9ff0 94bd 4a87 b4bd f618 e0bc 811a afbd
000000e0: dabe 693d e827 c93c 08dd b6bc 2091 20bc
000000f0: a85f b5bc cae1 4b3d 0065 5ebc d571 22bd
00000100: 6cd4 80bd 4c8f abbd 4046 5ebb 6942 9b3d
00000110: de04 d6bc f3f5 adbd b172 99bd c454 9f3c
00000120: 1a78 4a3d 8e6b 53bd 501d 73bc b49c aa3c
00000130: 7928 abbd d863 843c 3c5d 94bd 143c c6bc
00000140: 3800 5bbd 884b ab3c c126 16bd 7db8 00bd
00000150: 20a6 6cbd 9918 af3d 3d9e 8fbd e0e4 033c
00000160: 763c 6a3d 6c1f bdbc ab99 ae3d 61e7 80bd
00000170: c2ce 173d de3b 75bd c86b 83bc 70a9 1dbc
00000180: 4c76 eabc f0f5 55bc c737 ab3d 30c8 5b3c
00000190: eca8 96bc d892 103c 660f 5d3d e772 86bd
000001a0: a0e9 413c 0053 71bc 4038 00bb 11a8 0ebd
000001b0: 21f4 9fbd f8d4 8bbd 6255 383d 7453 873c
000001c0: a006 38bc 1a59 7e3d bf19 893d 06dd 7a3d
000001d0: 74d2 6bbd 5e59 563d 4873 41bc a559 1abd
000001e0: def0 6c3d f93d 06bd ed0c b03d e4e3 973c
000001f0: 8071 3d3a e817 9cbc 4425 59bd 22d2 00bd
00000200: 0898 d53c aec0 81bd 7271 af3d 776d 953b
00000210: 914f a83d a75d 973d c4fb 7a3d 4ee0 9ebd
00000220: 3770 593d d34c 19bd 1b12 7b3d 47f4 09bd
00000230: 7eee 563d e133 05bd d3c8 393d 99e8 7fbc
00000240: d476 8cbd dd70 903d 6889 1e3c f05d 28bc
00000250: 0822 9ebd 7fcf 773b cf1d 5b3d 7170 723d
00000260: 4158 0b3d ca7c 94bd 8b06 a83d 9eb2 50bd
00000270: ceaf 4b3d 3f60 223d d160 63bd 77dc e1ba
00000280: 1d3d 1a3d 78c5 223d b7ec 8abc b148 48bc
00000290: c58a 4d3d a182 3c3d 0c9e 7bbc a08b 79bd
000002a0: 8e83 c73c 542e e83c 596f bd3c 466f 2e3d
000002b0: 3ce2 1bbd 8b8a f13b 114c 2bbd 4d07 b23d
000002c0: 757a 513d 5c49 253c 94eb 533d b2a9 28bb
000002d0: 1c1c aebc af16 bd3d 3bb4 a4bd 6520 88bd
000002e0: 9460 50bd 3bdc 843d ec30 2d3d ba59 033d
000002f0: 0073 55bc d294 21bb 2220 b6bc 2ab8 7dbd
00000300: 6a02 45bd c8a9 77bd 6128 99bd f5d1 5fbd
00000310: e05a 8abd a25d 7fbc 608f 853d 5c66 a43d
00000320: 4301 b2bd 47d3 7b3d 3fc1 e0bc 3b20 5a3d
00000330: 0576 783d 53c5 a43d a0e1 95bc bd0c f139
00000340: db43 df3c ae28 4f3d b8ed 293c e1ac 50bd
00000350: 2ce5 983c 2035 c23b 562c 08bd c2e7 293d
00000360: 5de4 8abd 4598 1cbd 66c4 e1bc 589e 85bd
00000370: 69b4 ec3c a4f7 46bd c4d2 cb3c 7b41 ee3c
00000380: 7136 b0bc 29a0 df3c 4e61 8a3b 0c8b a1bb
00000390: d5ac 76bd 4793 86bd 39dc d53c b713 8abd
000003a0: a153 92bc fe49 dc3b b1c3 8fbd e80e ab3b
000003b0: e51f 91bd e1b3 0d3d 9dae 34bd f089 23bd
000003c0: 0015 5dbc 3e70 123d 8b9c a73d 1ecf 823c
000003d0: f50e f73c a9d6 8d3c e35d 823b 4742 99bd
000003e0: 6f8b d4bc dec8 92bd 2975 e13c 18dc d6bc
000003f0: d350 893d e307 903a 4d57 a2bd 3b1b 3b3d

bias f4 [256]
-0.05231978 -0.052827656 -0.02995084 -0.040245526 -0.006154834 -0.06063517 0.07037137 -0.088632084
-0.045306616 0.049286395 0.0714936 0.045060094 -0.03151359 0.07992409 -0.0832736 -0.017943824
-0.01453408 0.024854213 0.016243655 -0.025053421 0.045059692 0.048485413 -0.08437166 -0.03445109
0.00232135 -0.06411742 0.0036760236 -0.043986984 0.04509006 0.06924751 0.0024597105 0.048891615
-0.08992027 0.07452391 -0.016686477 0.06985331 -0.07855993 -0.07494061 -0.08939426 -0.06835895
-0.063992396 0.034425896 0.019569628 0.032912623 -0.01261036 -0.05260678 0.058783405 -0.06910756
0.005212587 -0.054992523 -0.056691177 0.024523335 -0.07712614 0.06595009 0.08114476 0.0015541883
-0.0068168747 -0.025273787 -0.06805519 0.06356681 0.049754683 0.07064565 0.061571036 0.081629425
-0.070495114 -0.08708476 -0.0058133607 -0.016466703 0.04665195 0.018463833 0.021890115 0.033393368
0.035777986 -0.05449301 0.016002268 -0.056572165 -0.008677237 0.080812976 -0.021634776 -0.08452011
-0.02238132 0.045775086 0.07884713 0.029337235 0.053292256 0.07874413 0.04544438 0.045676418
-0.026068436 0.06854666 -0.043512825 -0.05435045 0.06985422 -0.02480186 -0.0094527975 0.022609353
-0.060501043 0.033477183 0.07558854 -0.057772864 0.05022158 -0.07084349 -0.023638502 0.06917704
-0.019819817 0.03400939 -0.0481617 -0.010089945 -0.034096435 0.020603882 -0.001845946 0.07266123
0.07051354 0.05388142 -0.06514823 -0.009274186 0.00017863205 -0.087234996 0.042987 0.029808259
0.045058507 -0.021563124 0.05969938 0.018794497 -0.02219688 -0.08781934 -0.035030577 0.071760654
0.015164634 -0.0017134015 0.0023867856 -0.0024915095 -0.013115025 0.062864326 -0.03138228 0.083198
0.044215128 0.0067055756 -0.033707634 -0.018185912 -0.029566217 0.047816217 0.019281121 -0.03522914
-0.03631042 0.013533681 0.059764948 0.03765139 -0.0643156 -0.06625187 0.017513001 0.002888514
0.05204478 0.073841676 0.0075596543 0.038191266 0.06029836 -0.064250976 0.08133109 0.04315941
-0.067388564 0.022208972 -0.0330363 -0.0101306755 0.07930344 0.019210879 -0.042758968 -0.041796032
0.06626502 0.02946679 -0.030342376 -0.07450841 0.028115535 0.08953306 0.037338912 0.051324025
0.0070198295 -0.023487788 0.025393484 -0.030016761 0.060761813 -0.07595338 -0.03506596 -0.05380212
0.056610253 -0.05444646 0.0015149189 0.08483638 -0.0032066032 -0.08575335 0.0117628975 0.031290293
0.08358342 -0.058329847 0.013346606 -0.039287843 -0.028708078 0.06132054 -0.0036704661 -0.032596707
0.08643359 0.049028132 -0.028977748 -0.034688517 -0.019894334 0.04893752 0.07555947 -0.014468923
0.06362347 -0.050913766 -0.067304224 0.07515066 0.039845426 -0.06757617 -0.029918479 -0.063306525
0.007081632 -0.024266768 0.039889332 -0.06696341 -0.015409297 -0.009230674 0.0854624 -0.08780399
0.047157757 0.08264909 0.08392743 -0.008198423 -0.0220982 -0.06340999 0.078149155 -0.08171283
0.028062342 0.052032642 -0.05487071 -0.00193204 0.0129741095 0.032389924 -0.034264334 -0.0191998
-0.056008417 0.08085707 0.06262106 -0.09456351 -0.07266535 -0.014524466 -0.00012778367 0.07237416
-0.07309131 -0.039529417 0.0856036 0.080260925 -0.0236495 -0.0850214 -0.049916342 -0.031665716
00000000: 444d 56bd d061 58bd 775b f5bc 7ed8 24bd
00000010: 7dae c9bb 965c 78bd dd1e 903d bd84 b5bd
00000020: 6e93 39bd 88e0 493d 3d6b 923d ef90 383d
00000030: 6514 01bd 3eaf a33d 598b aabd edfe 92bc
00000040: 5a20 6ebc 109b cb3c 6a11 853c d53c cdbc
00000050: 8390 383d a498 463d 0dcb acbd 961c 0dbd
00000060: ca21 183b fe4f 83bd 71e9 703b b22b 34bd
00000070: 5bb0 383d a3d1 8d3d 1833 213b 9342 483d
00000080: 1e28 b8bd fe9f 983d 14b2 88bc 410f 8f3d
00000090: 07e4 a0bd 767a 99bd 5614 b7bd c7ff 8bbd
000000a0: 720e 83bd 2b02 0d3d 7c50 a03c 63cf 063d
000000b0: af9b 4ebc 357a 57bd dec6 703d 4488 8dbd
000000c0: 59ce aa3b d73f 61bd 0235 68bd 29e5 c83c
000000d0: 4ff4 9dbd d710 873d 392f a63d e8b5 cb3a
000000e0: 1760 dfbb f90a cfbc 8560 8bbd 512f 823d
000000f0: 91cb 4b3d abae 903d e931 7c3d 542d a73d
00000100: be5f 90bd 7f59 b2bd 017e bebb 2ee5 86bc
00000110: 1d16 3f3d 7741 973c e652 b33c 7cc7 083d
00000120: f08b 123d 1034 5fbd 3017 833c 37b8 67bd
00000130: f82a 0ebc 4681 a53d 6a3b b1bc e118 adbd
00000140: 0859 b7bc a87e 3b3d 9b7a a13d a454 f03c
00000150: fb48 5a3d 9a44 a13d e323 3a3d 3217 3b3d
00000160: 798d d5bc 3162 8c3d 813a 32bd 949e 5ebd
00000170: bb0f 8f3d 452d cbbc e8df 1abc 4037 b93c
00000180: f1cf 77bd 5f1f 093d 2ace 9a3d 3da3 6cbd
00000190: 25b5 4d3d 6416 91bd 88a5 c1bc b1ac 8d3d
000001a0: 2b5d a2bc 6e4d 0b3d 3445 45bd 4c50 25bc
000001b0: b4a8 0bbd 79c9 a83c abf3 f1ba 69cf 943d
000001c0: 6769 903d c4b2 5c3d 6f6c 85bd c1f2 17bc
000001d0: 2d4f 3b39 43a8 b2bd 2313 303d 7330 f43c
000001e0: 458f 383d 26a5 b0bc 5687 743d ebf6 993c
000001f0: 3bd6 b5bc a0da b3bd 397c 0fbd 40f7 923d
00000200: 1675 783c 3794 e0ba 9e6b 1c3b 9848 23bb
00000210: 67e0 56bc 03bf 803d b58a 00bd b763 aa3d
00000220: ec1a 353d 72ba db3b 0411 0abd 9ffa 94bc
00000230: da34 f2bc f0da 433d 71f3 9d3c 6e4c 10bd
00000240: 3cba 14bd 5fbc 5d3c 17cc 743d 5838 1a3d
00000250: e6b7 83bd 0faf 87bd 6d77 8f3c 394d 3d3b
00000260: e82c 553d 4e3a 973d fab6 f73b 726e 1c3d
00000270: 6afb 763d 0496 83bd ea90 a63d ecc7 303d
00000280: 0403 8abd 97ef b53c 1251 07bd 22fb 25bc
00000290: d869 a23d 2260 9d3c 0724 2fbd 5132 2bbd
000002a0: f4b5 873d 5664 f13c 9390 f8bc de97 98bd
000002b0: 8d52 e63c 1c5d b73d b0f0 183d 2439 523d
000002c0: 9906 e63b 7669 c0bc ff05 d03c b6e5 f5bc
000002d0: 61e1 783d 728d 9bbd 53a1 0fbd 9d5f 5cbd
000002e0: 27e0 673d 4003 5fbd 3e90 c63a b2be ad3d
000002f0: e025 52bb 749f afbd 2bb9 403c 402a 003d
00000300: c92d ab3d 47eb 6ebd b9ab 5a3c 4aec 20bd
00000310: 342d ebbc 3f2b 7b3d 348c 70bb 2084 05bd
00000320: 1804 b13d b9d1 483d be62 edbc 8c15 0ebd
00000330: 71f9 a2bc b572 483d ecbe 9a3d 100f 6dbc
00000340: 064d 823d f48a 50bd ccd6 89bd 97e8 993d
00000350: f534 233d 6065 8abd 9917 f5bc daa6 81bd
00000360: 090d e83b 1acb c6bc ff62 233d 1d24 89bd
00000370: 4777 7cbc 413c 17bc e906 af3d 94d2 b3bd
00000380: 7e28 413d ed43 a93d 25e2 ab3d ae52 06bc
00000390: 4907 b5bc 19dd 81bd aa0c a03d 0e59 a7bd
000003a0: ffe2 e53c 2e20 553d 1cc0 60bd 813c fdba
000003b0: 5c91 543c 4cab 043d c258 0cbd e648 9dbc
000003c0: 1569 65bd 6498 a53d 783f 803d 83aa c1bd
000003d0: 92d1 94bd 07f8 6dbc abfd 05b9 e738 943d
000003e0: e6b0 95bd 99e9 21bd f150 af3d d75f a43d
000003f0: 99bc c1bc b31f aebd 1475 4cbd e9b3 01bd

weight f4 [4, 256]
-0.023084037 -0.036600012 0.042265337 -0.006213175 0.01968835 0.04360212 0.039324153 -0.032014653
-0.016251937 -0.03289887 -0.04238117 -0.028828122 0.04122342 -0.0014439274 -0.00012574185 -0.02943529
-0.044627167 -0.04493342 -0.046961028 -0.01586686 -0.02310895 0.027601607 0.029750422 0.021488456
-0.012695449 0.008733713 0.03383259 0.012961588 0.011221304 -0.02019498 -0.033485305 0.0054681287
-0.052241817 -0.0125744445 0.029838424 -0.030562812 -0.020025492 -0.0070610726 0.004115193 -0.015939482
0.054360956 0.033761755 0.0011311972 -0.010506957 0.014964861 -0.052956197 -0.04607581 0.051298954
-0.01736944 -0.05631097 0.018288536 -3.101604e-05 -0.007827239 0.0027635172 0.015238344 -0.054082777
0.001836724 -0.06105504 -0.016708827 -0.018605554 0.045879256 0.049232822 -0.03380369 -0.011940218
-0.00795541 -0.022601133 -0.037590142 0.0438739 -0.021200303 0.048949413 -0.03965815 -0.01843433
0.036911994 0.0486004 -0.02229661 -0.036516696 0.024770396 0.0040714312 0.026034033 -0.023635719
0.024450812 0.05878726 -0.04168908 0.0076630334 0.04396219 0.015297434 0.061736505 0.043784756
0.05279639 0.053309526 0.016563868 0.04602329 -0.039368812 -0.02468779 -0.0015374876 0.04473774
-0.03253262 -0.019125447 0.04885534 0.020759197 0.05342533 -0.027292406 0.028836954 -0.017771559
-0.002660268 0.03982517 -0.020497734 -0.04299843 0.006832261 0.025916634 0.020935895 -0.044397306
-0.01306649 0.01482542 -0.008506341 0.007881767 -0.047264565 0.049242213 0.029694984 0.047429807
-0.032719575 -0.00494272 -0.04186228 0.05094409 -0.023116326 -0.0065084514 0.03614933 0.049076226
0.013094061 -0.05452273 0.035714604 -0.019818792 -0.006827764 0.03164185 -0.05203983 -0.03550148
-0.040586695 -0.042841654 0.028317021 -0.033441167 0.028110927 0.043107864 -0.028907364 -0.012079645
0.03261245 -0.010758172 0.03281527 0.024132537 0.0145103475 -0.043605175 0.007405226 0.049833532
0.053198252 0.03142728 -0.0016777861 0.02502193 0.014690304 0.043300908 0.026105383 -0.0234879
-0.06098763 -0.04608096 0.024952061 0.0008594224 -0.029504409 0.040219247 -0.0005441773 0.035391532
-0.024173979 0.056833178 0.042569116 -0.03738687 0.04399248 -0.015486668 0.050281774 0.01893367
0.027035667 -0.008458806 -0.004692044 -0.041182224 -0.05134712 0.021512598 -0.014687787 0.020311937
-0.0020816543 -0.009415731 -0.010128737 0.033373628 0.02367001 0.023505574 0.05179798 0.009930604
-0.050642077 0.02007652 -0.032420162 -0.029265242 0.013645738 0.034189057 0.059182197 -0.032480832
0.044193685 -0.046808705 0.018990865 0.035345603 -0.0012696112 -0.02465673 -0.060571864 0.04139791
0.02890434 0.052870177 -0.009544246 0.011784756 0.005660548 -0.044219375 -0.011459784 0.032498855
0.004899393 -0.046122745 0.051405556 0.021899678 -0.052035987 0.050622486 -0.015435489 -0.021641374
0.0042106216 -0.05869817 0.0042793076 -0.031950604 0.016874723 0.024551477 -0.012172058 -0.014677068
0.042764172 -0.051268987 0.012608887 -0.0012146038 -0.050188657 -0.005439085 0.054865982 0.031212818
0.04947714 -0.030346755 -0.027380126 -0.058159497 -0.040938787 0.027718715 -0.019758413 0.035025798
0.050467145 -0.03333632 -0.045197137 0.009292385 -0.05141481 0.041693766 0.0021347627 0.051166918
00000000: bc1a bdbc e5e9 15bd 6b1e 2d3d e497 cbbb
00000010: 7649 a13c 2398 323d 5d12 213d cc21 03bd
00000020: c822 85bc f7c0 06bd e197 2dbd f428 ecbc
00000030: e4d9 283d 2a42 bdba 92d9 03b9 4722 f1bc
00000040: faca 36bd 1b0c 38bd 355a 40bd 38fb 81bc
00000050: fb4e bdbc c41c e23c 28b7 f33c 8f08 b03c
00000060: 9300 50bc d917 0f3c 0b94 0a3d d75c 543c
00000070: 8fd9 373c f16f a5bc e327 09bd fd2d b33b
00000080: 84fb 55bd 0b05 4ebc b66f f43c dd5e fabc
00000090: 800c a4bc 9260 e7bb bed8 863b 8493 82bc
000000a0: 98a9 5e3d c449 0a3d ae44 943a 5f25 2cbc
000000b0: 2d2f 753c 99e8 58bd fdb9 3cbd da1e 523d
000000c0: 5b4a 8ebc 55a6 66bd d7d1 953c 3817 02b8
000000d0: d23d 00bc 201c 353b 3faa 793c e785 5dbd
000000e0: 3bbe f03a da14 7abd f3e0 88bc ad6a 98bc
000000f0: e3eb 3b3d 5ba8 493d bd75 0abd e7a0 43bc
00000100: 6857 02bc 0326 b9bc 1ff8 19bd 1eb5 333d
00000110: 42ac adbc 2e7f 483d 9670 22bd 9803 97bc
00000120: 0831 173d 3711 473d 61a7 b6bc 8892 15bd
00000130: 49eb ca3c a469 853b 5345 d53c b29f c1bc
00000140: 124d c83c e9ca 703d 2bc2 2abd 2f1a fb3b
00000150: b311 343d 17a2 7a3c 6bdf 7c3d a557 333d
00000160: 0741 583d 175b 5a3d f3b0 873c eb82 3c3d
00000170: 3141 21bd 0c3e cabc 8685 c9ba ec3e 373d
00000180: ed40 05bd f8ac 9cbc 891c 483d 310f aa3c
00000190: 85d4 5a3d 5394 dfbc 7a3b ec3c a995 91bc
000001a0: e457 2ebb b81f 233d ddea a7bc 1f1f 30bd
000001b0: 29e1 df3b 1f4f d43c c181 ab3c f3d9 35bd
000001c0: d514 56bc 52e6 723c 2e5e 0bbc 8722 013c
000001d0: 7d98 41bd 34b2 493d e542 f33c c245 423d
000001e0: f604 06bd 8af6 a1bb c877 2bbd c0aa 503d
000001f0: 735e bdbc d944 d5bb 5211 143d 2704 493d
00000200: 7988 563c 3a53 5fbd 7a49 123d 055b a2bc
00000210: 70bb dfbb e29a 013d b727 55bd 006a 11bd
00000220: 3c3e 26bd bb7a 2fbd 19f9 e73c 9bf9 08bd
00000230: e348 e63c df91 303d 23cf ecbc b4e9 45bc
00000240: a294 053d 0b43 30bc 4e69 063d 99b1 c53c
00000250: cfbc 6d3c 579b 32bd 8aa7 f23b 3f1e 4c3d
00000260: 69e6 593d e4b9 003d 29e9 dbba cafa cc3c
00000270: 9aaf 703c 4b5c 313d f5da d53c b269 c0bc
00000280: 2ace 79bd 64bf 3cbd 4468 cc3c dc4a 613a
00000290: 3bb3 f1bc f0bc 243d 1fa7 0eba b6f6 103d
000002a0: 8208 c6bc e8c9 683d f45c 2e3d f922 19bd
000002b0: 7531 343d cbbb 7dbc 43f4 4d3d c91a 9b3c
000002c0: e779 dd3c ce96 0abc b8bf 99bb b1ae 28bd
000002d0: 5c51 52bd 303b b03c 0ba5 70bc 3865 a63c
000002e0: 5d6c 08bb 7044 1abc 01f3 25bc c9b2 083d
000002f0: 9ce7 c13c c38e c03c 1e2a 543d f9b3 223c
00000300: 116e 4fbd 8477 a43c 01cb 04bd a9bd efbc
00000310: 6092 5f3c d309 0c3d 0869 723d 9f0a 05bd
00000320: 7004 353d 7cba 3fbd bb92 9b3c 8dc6 103d
00000330: 1569 a6ba e9fc c9bc 341a 78bd db90 293d
00000340: cbc8 ec3c 668e 583d 785f 1cbc d914 413c
00000350: 1e7c b93b 601f 35bd d1c1 3bbc 851d 053d
00000360: 168b a03b 34eb 3cbd a28e 523d f466 b33c
00000370: b023 55bd 8659 4f3d 22e5 7cbc 4049 b1bc
00000380: 41f9 893b 7e6d 70bd 6f39 8c3b a3de 02bd
00000390: dc3c 8a3c 2e20 c93c 506d 47bc 1678 70bc
000003a0: 7c29 2f3d 6eff 51bd 8195 4e3c 5733 9fba
000003b0: 9f92 4dbd 5a3a b2bb 27bb 603d 06b2 ff3c
000003c0: 8ba8 4a3d c299 f8bc 494c e0bc a738 6ebd
000003d0: 6eaf 27bd 5c12 e33c 65dc a1bc 3677 0f3d
000003e0: a3b6 4e3d aa8b 08bd a220 39bd 163f 183c
000003f0: 5698 52bd 15c7 2a3d 60e7 0b3b 6794 513d

bias f4 [4]
-0.010427109 0.039278682 -0.0050724694 -0.053607237
00000000: 77d6 2abc afe2 203d f536 a6bb 4393 5bbd
